rbm/models/model1/W_16.npy (npy, 1280 bytes, 1 tensors)

array f8 [16, 9]
00000000: ca46 ffc6 06cd d2bf c674 0bca 416b e2bf
00000010: 37f3 3f8c 4fc6 e13f b91e 8386 0527 f3bf
00000020: ec3b c580 dc21 cabf 2345 6c88 d783 f23f
00000030: 4d14 266f d893 e73f c58a d251 08c3 f23f
00000040: 6e3a 0a75 1a6b 0140 6d78 d579 e322 f43f
00000050: 769e f7c0 9d26 e53f 4a1d f112 89af f33f
00000060: d982 9175 107c e43f fe22 4ed2 2f6a c8bf
00000070: e7c1 b933 eebe dd3f c26e 425b 8d26 e43f
00000080: af97 6f40 4c4d e5bf 60e1 01b2 2984 c93f
00000090: 4dbd c55c 0b84 d8bf 0a5b 6199 68ff ccbf
000000a0: 4768 2a0a 0bd0 e13f 8188 92bc a8ac f13f
000000b0: 235f 3524 acaa f83f 0023 6cc6 120d fe3f
000000c0: 9b2e 18fe fc8a e5bf 62f4 3139 1109 b6bf
000000d0: 04aa 2828 b8b2 e33f ef57 966b bfbc f73f
000000e0: 13fa 2db2 cebe e2bf b764 f289 030a e7bf
000000f0: a2fc b46d 3f92 fe3f 64cc 1557 5d90 eb3f
00000100: 05ef 3ec3 8a70 f33f a017 c5c4 71d7 e73f
00000110: f49f 21e0 bc6f cabf 418d b695 4d37 d6bf
00000120: aa4d e2cf 1f0e dabf 276a 4677 33e0 f0bf
00000130: 428e d4fe 2bea 96bf e271 3ad4 2690 b83f
00000140: c914 aa59 819b eebf f023 f9ef ca06 dbbf
00000150: 4e9e 2dd2 d8f1 de3f 84cd 8bc7 c170 e6bf
00000160: 9fbd 0543 2485 db3f 1539 fad3 5484 c5bf
00000170: 94e5 7808 2eda e33f 194f 68f8 a87a df3f
00000180: f7de dba1 58ac a33f 8f7d b480 5abc ae3f
00000190: a203 d826 b0c7 e53f 7122 6f83 d127 d33f
000001a0: 41df fe84 8087 e33f 5d6a 5d27 1fbe e33f
000001b0: 404c e901 16a1 f43f 38be e298 c138 edbf
000001c0: 9502 31f7 b775 c7bf 53de 336b 1bea f43f
000001d0: 1e8c 6097 68a6 e2bf 40ad d959 a51f e9bf
000001e0: 36d8 7fff 837d fe3f 2550 cdd6 d360 f63f
000001f0: 0809 aa00 1bf4 f03f 8f4d ef31 4020 efbf
00000200: 16bf 4b17 1fd7 f73f c4ed c0b3 d1f2 e1bf
00000210: c3f6 18c5 3341 e3bf b2be cc1e d061 eb3f
00000220: 41a6 9f2d fbb8 c8bf 58a7 c87c d85c f13f
00000230: 7fc6 d3ea 067b 0040 47e1 d14b 4b70 e63f
00000240: f00c 5b8a 9836 f3bf ca94 98b9 c75d efbf
00000250: 9a31 df67 0f80 e5bf 8caa f29f 7222 e2bf
00000260: bd83 891d b8e6 c4bf 29f4 cda9 27a7 f03f
00000270: 86bb 186c 02f1 843f 6733 e197 f584 ddbf
00000280: 184f 18a5 3e93 e53f 8181 9fdd 575b f73f
00000290: 9429 f6d8 c20e f93f f993 ef9a f9a0 0240
000002a0: c364 cb31 63f5 ecbf 3c76 ec5c 5e93 e4bf
000002b0: e705 6c4b 4acf f43f ae8a 6cde 12e4 e2bf
000002c0: 86b1 6b63 4e48 debf e308 abee ff55 f53f
000002d0: 8b40 a28d 5006 ee3f d5d1 6d92 485c f13f
000002e0: b2fb 589f 4e8b e63f 274a 0ba1 e8d3 cbbf
000002f0: dcc4 5797 d4f9 e33f 5190 8d6d 6048 e2bf
00000300: 3924 7ee1 9724 b9bf 02c7 afa6 4854 d73f
00000310: 6236 986c c6de dbbf 60a3 0e6f dc40 c8bf
00000320: 17a7 a1bd a2ab e1bf 2f02 e2fa aed2 f4bf
00000330: c996 9760 b492 d6bf 1134 57bb 02c9 d43f
00000340: 16cf ebb9 1ba9 f8bf b41d 16bf a721 f23f
00000350: c5a6 1ba3 4b24 ec3f c250 c36e 4920 d2bf
00000360: 0978 faaf e85e f23f 7277 4132 f6c1 da3f
00000370: 8178 35f2 a578 c3bf 9fdf 7d71 410f f33f
00000380: b6ea 457f ce9c d9bf 122e 7054 2df3 c6bf
00000390: 1f45 25ca d1f7 0040 2c5b 8134 ba6e a1bf
000003a0: 3627 3fee 9184 e23f 2def 61fa 1e10 ecbf
000003b0: dab5 4b9c d5fa f73f a1ae d4ab 5d8f d7bf
000003c0: ace6 3f8b bd49 f63f 744a 4eaf 4700 0340
000003d0: 76d1 7f80 79b8 e73f 8ccd 525e 5cee e0bf
000003e0: 88e3 e3da 1839 f63f 1e8a 94a2 9006 dfbf
000003f0: d87a ffee f0bb b13f e8f6 324c c21a e9bf
00000400: 793b 58db 6a06 b0bf 3f56 a64c dda1 f23f
00000410: 3daf 95aa a8af cabf da6e 93c8 afe3 f23f
00000420: 79cb dc22 0d70 cf3f 47ee d451 2c88 f5bf
00000430: f5d0 0556 0744 b5bf b9d3 4e0a c33f f7bf
00000440: a063 aa7f 52ff f3bf 1e61 057a e019 e63f
00000450: 5bc1 2847 ace1 e23f 6c57 434b ab63 a53f
00000460: c9dd c322 45d7 f43f 5b33 34af c73b df3f
00000470: 5124 8e21 c477 e83f 1fbb 988a d096 f93f
-0.29376382287328495 -0.5755928941904578 0.5554578532461169 -1.1970267538435293 -0.20415836608523763 1.1571879700680447 0.7367975397943468 1.1726153560818358
2.177296556830064 1.2585177191863537 0.6609638947383718 1.2303553333202495 0.6401445671327465 -0.19074056404885903 0.4647784714825591 0.6297060758983763
-0.6656857737077554 0.1993457907845011 -0.38305934963041893 -0.22654445161125408 0.5566458891437457 1.1046531072720713 1.541668073119532 1.8781917334437708
-0.6732163393766827 -0.08607585569730383 0.6155663284637858 1.4835809900882813 -0.585791919714952 -0.7199723905825043 1.9107050214222814 0.8613726330644451
1.2149760844030777 0.7450493662988613 -0.2065349668876021 -0.3471254312555239 -0.407112076770512 -1.0547365817243504 -0.022377669743163027 0.0959495800147532
-0.95648257744383 -0.4222895949829413 0.4835111668130353 -0.7012642762551171 0.4300013212695947 -0.16810093260250683 0.6203832784150785 0.4918615747312614
0.038424272306597666 0.060030773364128646 0.6806259878795695 0.2993053229843446 0.6102907750673482 0.6169582146497522 1.2893276285801818 -0.9131782518433686
-0.18327998704809959 1.3071550548173902 -0.582813544901345 -0.7851130251778287 1.9056434612698587 1.398639525480584 1.059596064180882 -0.9726868605888955
1.490019885062741 -0.5608910094082877 -0.6017092561302991 0.855690059810476 -0.1931451771518358 1.0851673960082362 2.060071787441131 0.7012077790123293
-1.2008290676611146 -0.9801977753565094 -0.6718823460337717 -0.5667050479872429 -0.16329099123234228 1.0408093102444218 0.010225314067694457 -0.46124019462586435
0.6742242073546292 1.4598005921507993 1.5661037898122219 2.3286010841716203 -0.9049545261906576 -0.6429893317142112 1.3006079622431288 -0.5903410286158157
-0.4731632204918913 1.3334960291836573 0.9382708326611618 1.0850301475412512 0.7045052635438565 -0.2174044405315538 0.62424687918806 -0.5713350429255205
-0.09821461920923093 0.36451927450171706 -0.4354721127027458 -0.18947940275873076 -0.5522016242732403 -1.3014364051924863 -0.35270413811518303 0.3247687177179737
-1.5412862074417197 1.1332166160881174 0.8794305978492153 -0.2832206327123111 1.1481711267620105 0.41808848293100376 -0.15211939169507008 1.191224520995071
-0.4001957171346179 -0.17929617522200708 2.1210056107162383 -0.03404790774282271 0.5786828664069847 -0.8769678964885991 1.4987388711264118 -0.36812536030149984
1.393003028816035 2.3751367278830973 0.7412688741447215 -0.5290967790846692 1.3889397192380972 -0.48477569462753134 0.06927400431548436 -0.7845164764655381
-0.06259792189687897 1.164517688191509 -0.20848568276721294 1.1805875620838635 0.24560703470487136 -1.3457453915169866 -0.08306928491748862 -1.4530668642666866
-1.2498345362603018 0.6906587966177857 0.5900479688480503 0.04177604001749455 1.3025561674129327 0.48802368268734647 0.7646198897720159 1.5993199743204014
