rbm/models/model1/W_4.npy (npy, 416 bytes, 1 tensors)

array f8 [4, 9]
00000000: 29a1 cb31 904e 3540 8052 715e d8e5 3940
00000010: b68a 883f b947 2540 24f3 0d6a 3b5e 1940
00000020: 5935 5635 698b 1440 11fc 7930 f70c 29c0
00000030: 7078 6dad a98e 18c0 0fd8 b644 361d 03c0
00000040: 5f82 e413 0e73 30c0 3067 7854 70d5 0340
00000050: d724 6c78 3ca6 eb3f 3319 f361 9216 2640
00000060: 5eaa 91b9 f86a 2040 302d 8331 be00 29c0
00000070: d003 2b57 c7e4 1c40 c8ca 604e 642a 3840
00000080: 1479 6f29 0388 f83f c848 aa63 307b 2e40
00000090: 0d4d c4f7 a03b 3540 9bbb c195 0b74 3a40
000000a0: 7979 49c3 43b8 2640 a155 48e2 b3f0 1c40
000000b0: 73e5 845c c9d8 1340 b3f2 39c8 7974 2ac0
000000c0: ce19 d748 0535 1ac0 1b3c 5c94 2452 04c0
000000d0: 6d7b c3dc 5f30 31c0 82b6 cbc5 558e 2440
000000e0: f191 d8db f611 04c0 57b1 800e 69c3 3340
000000f0: 223e 8e6b f17f 3340 f951 05d3 8eec 33c0
00000100: 5cd9 5730 52e0 3240 7eb0 fa9e 8f95 2ec0
00000110: 4e52 43ce 2b11 48c0 9e4b 58c5 cd0e 1bc0
21.30688773366379 25.897832777659005 10.640085206430154 6.342023522473742 5.136143525492423 -12.525323405161574 -6.1393191431107965 -2.3892636650371126
-16.449433558739084 2.479218158649836 0.8640425064087606 11.044085560727217 8.208928870231087 -12.50145106054569 7.2234166736606795 24.165593050604713
1.5332061403819965 15.240603556191118 21.232924924302143 26.4533017728787 11.359891989440017 7.235061202683398 4.961705632792802 -13.227491623948799
-6.5517779713904485 -2.540108832421095 -17.18896274349702 10.277998143307972 -2.5087716269938416 19.7633217872802 19.499777528979514 -19.92405432586563
18.876254102180027 -15.292111366368996 -48.13414934432204 -6.764456828607676
