rbm/models/model1/W_8.npy (npy, 704 bytes, 1 tensors)

array f8 [8, 9]
-3.120067875421684 3.803658955935254 -3.8421858382114396 2.2117638020446977 12.809127195476266 1.1477015918294382 -3.217141461443833 9.217888509531583
-2.249547949745864 -1.88492265380017 -1.7559674368728166 -1.4072120302025573 -7.59432775177857 -5.403586056624678 -5.1450338185885505 -2.3328239262619306
-2.338544076898284 -3.0746471637648956 1.570393671835773 2.3828282693770024 16.37172774234956 -0.5346913653601915 -1.0821638941963965 4.772949606884584
-8.781923223167787 -8.040802725936473 2.1756114068580867 -6.4488926893337375 -15.074276901264271 0.015384624330580382 -1.514196878900416 -5.651458388781708
2.7031936608880214 4.012371133126074 -0.5047791619329345 10.315390260538617 0.3057837398645276 7.435642580539595 8.848981550002408 -3.445283699836288
1.751113522079076 2.059643941607176 -17.199217522411924 -3.161534684396816 -2.049010484128741 0.19193037586104153 4.490059922402318 -3.840207574794398
-4.429819264551507 -0.9787198322342832 -13.776990233616171 1.296019963536187 4.258918337984476 -4.350539420265124 -2.893619730054218 -2.6550379949479996
-1.948158992803252 -6.874591454443991 -5.036572613661083 -4.832853915521928 -2.9845696514785693 -3.4529557832943976 -3.748655521651674 18.467938248491826
1.295673103082033 0.6009368548867356 8.619805914947317 -1.699430504268054 0.1403181603922733 1.5752159138452106 -11.171969954547569 -13.362129237754033
00000000: 04e4 7125 e6f5 08c0 0e09 27bf e46d 0e40
00000010: 0a2e c2ed cbbc 0ec0 9a11 6238 b1b1 0140
00000020: e1bf 75eb 459e 2940 df97 2758 fc5c f23f
00000030: 260e 9ca9 b4bc 09c0 8439 2d15 8f6f 2240
00000040: e889 d7fe 12ff 01c0 ecfa 18a8 a428 febf
00000050: e65a a34f 7118 fcbf bc1f 04c3 f083 f6bf
00000060: 06fa 4374 9760 1ec0 634c c9a9 459d 15c0
00000070: 779b cebe 8394 14c0 70f8 3497 9fa9 02c0
00000080: d842 d498 56b5 02c0 04e0 b89c e098 08c0
00000090: 7c14 661d 5520 f93f 04ab 8744 0810 0340
000000a0: 4368 a08c 295f 3040 989e f510 311c e1bf
000000b0: b8c4 6716 8b50 f1bf f419 0c1a 8017 1340
000000c0: 24fa 9e3d 5890 21c0 38f8 4a18 e414 20c0
000000d0: 8c14 0af4 a667 0140 5668 7086 aacb 19c0
000000e0: 798e 3b9f 0726 2ec0 7082 e352 f981 8f3f
000000f0: 2a52 a981 263a f8bf d316 6ae8 179b 16c0
00000100: 0626 82ff 23a0 0540 88c3 b004 ab0c 1040
00000110: 2689 06a1 2627 e0bf 06fb 0cd5 7aa1 2440
00000120: 4d78 97f6 f591 d33f 82a6 b016 19be 1d40
00000130: e155 b0b5 adb2 2140 efe8 81e6 f08f 0bc0
00000140: ab9b ce9c 8f04 fc3f dddb 549a 267a 0040
00000150: a38c 67eb ff32 31c0 683b 55b2 d24a 09c0
00000160: dbf3 d39b 5f64 00c0 0f51 b7af 2c91 c83f
00000170: 6931 af44 d2f5 1140 4fbf bcbf beb8 0ec0
00000180: 0bc2 918a 22b8 11c0 4092 ec40 ac51 efbf
00000190: be62 f5a9 d18d 2bc0 d89d e56d 7fbc f43f
000001a0: 79e9 87e3 2109 1140 73fd 47ce f366 11c0
000001b0: 4e25 dd19 2226 07c0 3883 6f8f 843d 05c0
000001c0: e7f8 97c3 a82b ffbf c4ca f8e6 947f 1bc0
000001d0: 156a 8e4a 7325 14c0 850c 26a8 d754 13c0
000001e0: 68e0 ad0d 66e0 07c0 9c44 1e48 a79f 0bc0
000001f0: c8b5 2b1b 3ffd 0dc0 e6d1 11cd ca77 3240
00000200: eab4 40b8 13bb f43f 5963 56ed df3a e33f
00000210: d621 6d33 573d 2140 4e7f 5a0a de30 fbbf
00000220: 9cb8 f50a f2f5 c13f b6a9 219a 1534 f93f
00000230: 535a 2572 0c58 26c0 7028 e200 69b9 2ac0
