rbm/models/model2/W_16.npy (npy, 1280 bytes, 1 tensors)

array f8 [16, 9]
-0.1683739801074853 2.818314762796459 2.6360129905630165 -2.1829227850694988 1.3159195455136277 0.20230618326423355 -3.4671296364789344 -0.3059018232961238
-1.5328972990307241 4.376574970917131 3.7730437342430916 4.411149219695815 2.793428193919486 -1.2439193224873903 -0.9133469543009255 1.796115263364584
-1.3144854311467271 -1.7224170549163118 -1.9652849434103745 -0.4272480085014082 2.5817959118621223 2.559720402738641 2.658863062076614 3.9854853137306905
-1.319944742262514 -1.2650945933015625 2.501856168119776 2.8311946411037288 1.0462786342382713 1.3493441837197924 -0.06361351396022485 -1.5104375821781342
-0.6118987316646846 0.5734377952141284 0.20688430177517125 0.9894343321583557 -0.358827879296968 -1.5304998763265412 0.7378495985999659 -2.0129128660013373
-2.4629313394266235 0.10643922494619507 0.5057862820940352 0.09232689647590689 1.677442539556759 -1.6663551840650535 0.11428460865841085 -0.269301366916198
-3.66460289419762 -3.1633994571625084 -2.1774210336175908 -1.7784657906681123 0.34995276988480106 0.12074992218563346 1.3494912362244287 -1.956031554401103
-2.9762500822298668 3.401839043218521 -1.08364630107196 0.5976309624690488 3.166050519467419 1.2743181509009913 -0.7590901809081049 -0.9352749051790998
0.18826424318357318 1.9666385510917797 -1.3041985742204754 -0.49931332809454076 1.155580847616221 -0.2762244097267915 0.1987947291041614 2.3898451877741715
1.7852763321740206 -2.7770314000064675 0.47948364392909665 2.4019311215931842 -1.7528306568832717 0.17456974875571105 -2.3927984187490017 -4.551888071427091
-3.5920647442056333 -1.888848242953841 -1.9930185694976987 -0.2572263920385958 -1.6648402294102564 -0.8188992344989607 0.25682820928287853 -1.10521454160284
-1.7283342284101855 -0.38711097416431045 -0.3278812134221225 -1.2854685069719067 -3.2314775354835206 1.1494915307706153 -0.736783712185276 -2.880296228701785
2.229571282729684 1.453474808584029 -1.0888210894660997 0.2557863457869974 1.4081784172273368 -1.1793457642574297 0.45569708511544627 2.5029598540014644
-0.6979890835833584 -2.8496043351284843 -1.8631441582401571 -3.728854927172138 2.384164758096391 1.7427977361600548 1.9121469053787463 0.986344427431035
0.04646799560403064 0.5540730580598069 0.7074735839130527 0.3651157268337981 0.6455481066143668 -1.1392926551644817 2.1854478417976875 -1.120058790298616
0.24612404803955554 3.9073994976291515 0.46421775988611147 1.156233222854674 3.5084803760762187 0.0752974644335282 -0.5309898205671573 0.17477201781208315
0.4926674333254866 -1.0647306388613493 -2.6514105942416966 -0.04825102402288156 0.12524799710733717 -1.5128444370800682 -0.061264990397643077 -0.6490526596503471
0.25769079080817786 -2.261000857644329 -2.0405619502891135 -0.7146190895730943 -2.944972561573566 -1.2681476702416221 0.7785902680063531 -2.171936502490906
00000000: 718d 0751 478d c5bf ba5b 409c e88b 0640
00000010: fe64 92fa 8d16 0540 ac88 9c38 a076 01c0
00000020: 165f 42a7 010e f53f ec00 7344 2be5 c93f
00000030: ea5a 7d76 aebc 0bc0 eafd b53d e593 d3bf
00000040: 496b 7751 bf86 f8bf 2e53 82de 9c81 1140
00000050: 469d a78d 312f 0e40 507a 114d 04a5 1140
00000060: 49de 84e1 f058 0640 1322 8ff2 17e7 f3bf
00000070: 33f5 5364 233a edbf 01f5 bf5b e3bc fc3f
00000080: 9a7f 1de0 2108 f5bf d902 8f2f 058f fbbf
00000090: e14c f49f ce71 ffbf 02dc f207 0858 dbbf
000000a0: 8e27 739d 84a7 0440 d054 c5b0 4e7a 0440
000000b0: b34a 41ff 5945 0540 fd4a c91f 46e2 0f40
000000c0: dfb6 c860 7e1e f5bf e239 09d4 d33d f4bf
000000d0: 68f6 aa2a cd03 0440 3135 4160 49a6 0640
000000e0: 26e9 48aa 8ebd f03f 3bfd 41ed e996 f53f
000000f0: 48f5 0aaa f948 b0bf 9eab 2199 c02a f8bf
00000100: a1d6 1ea6 ac94 e3bf 5785 1738 9a59 e23f
00000110: 540f 174f 2f7b ca3f 951c 4530 72a9 ef3f
00000120: 0a4e 9e35 09f7 d6bf 31ac 3570 ed7c f8bf
00000130: 8950 ebc2 769c e73f 1263 890f 721a 00c0
00000140: ed0b 9958 15b4 03c0 88ce 27de 993f bb3f
00000150: 7b7f 8bb6 662f e03f 0abb e748 bca2 b73f
00000160: 260c 05fd cdd6 fa3f 7d45 b10d 64a9 fabf
00000170: a1c0 9f90 c141 bd3f 2a15 ebcc 3b3c d1bf
00000180: ed3e 7b52 1b51 0dc0 b793 e55f a44e 09c0
00000190: 9f14 08b8 5b6b 01c0 d596 7f8b 9874 fcbf
000001a0: 7c30 734d a065 d63f b426 c886 77e9 be3f
000001b0: 1729 5d1f 8497 f53f 6c8c 41be e74b ffbf
000001c0: 1e28 ff33 5ccf 07c0 2c09 6763 f736 0b40
000001d0: 2791 f880 9d56 f1bf ce35 dcf7 ca1f e33f
000001e0: 61c5 744b 1254 0940 6c1a ed6d 9b63 f43f
000001f0: 8fe1 b67d 774a e8bf 8470 50a3 c5ed edbf
00000200: c564 bdef 0a19 c83f 4fdf 3ffc 5977 ff3f
00000210: b144 fc52 ffdd f4bf c0de a7e3 bff4 dfbf
00000220: 7f54 c657 427d f23f d68a 8825 a9ad d1bf
00000230: 804d 0f0e 1b72 c93f c2f1 5f27 671e 0340
00000240: fd29 50ea 7d90 fc3f 67f1 173d 5c37 06c0
00000250: bd1c 692a dcaf de3f 0be6 f3a9 2737 0340
00000260: 6cd6 ab28 980b fcbf 6b6b e330 4d58 c63f
00000270: 6e94 537f 7324 03c0 d553 8725 2235 12c0
00000280: 89d2 cb70 8cbc 0cc0 3e80 69ef b838 febf
00000290: 5b03 8570 67e3 ffbf 7553 5eaf 6576 d0bf
000002a0: 721d 2682 2fa3 fabf 208f dc2a 6c34 eabf
000002b0: 6eda e395 df6f d03f 1cf7 7371 f5ae f1bf
000002c0: 2944 b9ca 41a7 fbbf a956 7d1b 6dc6 d8bf
000002d0: 64bb 277c 01fc d4bf 73b7 d76c 4791 f4bf
000002e0: 8048 e5e4 10da 09c0 3405 3b3b 5164 f23f
000002f0: a8f5 816f bb93 e7bf ca87 c8bf d80a 07c0
00000300: ea65 fb77 29d6 0140 2cda 06cd 6e41 f73f
00000310: 583b a7a9 cf6b f1bf b9c8 7ab1 cd5e d03f
00000320: 91ca 8e17 e687 f63f ad96 02aa 99de f2bf
00000330: 0404 5d1b 242a dd3f 0919 e1d0 0f06 0440
00000340: be93 de33 ed55 e6bf 5455 8f5b fdcb 06c0
00000350: b0ff b53f 70cf fdbf c3dc 5de4 b1d4 0dc0
00000360: e465 02f9 c412 0340 b79a 05e1 7fe2 fb3f
00000370: 39fd 7b5a 2798 fe3f 7d0f 4d30 2290 ef3f
00000380: c826 dc32 a7ca a73f 43c5 fe6b f7ba e13f
00000390: 5b18 36a4 9fa3 e63f 6469 805a 0e5e d73f
000003a0: dfe8 bc80 54a8 e43f 3f12 68ef 8a3a f2bf
000003b0: 2c14 fd13 cc7b 0140 c8e0 1ec4 c2eb f1bf
000003c0: 2365 8b28 fe80 cf3f d3ca f5aa 5a42 0f40
000003d0: 08ba 3b68 beb5 dd3f 215a 6b68 ee7f f23f
000003e0: ba3d cf28 5e11 0c40 ccb6 36d3 b146 b33f
000003f0: 0009 3b5d defd e0bf 3b21 61f2 ed5e c63f
00000400: 81fb 7bfc dc87 df3f c356 8ffe 2209 f1bf
00000410: c149 f4c1 1636 05c0 c883 5ab4 5bb4 a8bf
00000420: 0596 bb59 2008 c03f 5b1c 535e 9c34 f8bf
00000430: 4c96 4bf4 1f5e afbf d98f 5215 0ac5 e4bf
00000440: 9918 c083 017e d03f 967b 1e9e 8716 02c0
00000450: 38a1 cf24 1253 00c0 1d0a 5ada 28de e6bf
00000460: 439b 3cc6 4d8f 07c0 54fb 2236 554a f4bf
00000470: f546 4223 36ea e83f 1b7f b93e 2060 01c0
