rbm/models/model2/W_4.npy (npy, 416 bytes, 1 tensors)

array f8 [4, 9]
000000 ac dd 15 52 4d e2 9a 40 64 31 b3 ed 88 e3 80 40
       1720.5755084435032 540.4418596267174
000010 61 74 d8 de ff 75 f6 3f 4a b7 29 2f 41 00 88 40
       1.403808470239959 768.031828237444
000020 63 b3 3d bd 00 c5 7d c0 75 37 84 d8 ae a3 79 c0
       -476.31268047429893 -410.23018695494767
000030 20 79 14 83 72 ec 13 40 6b e3 ca 31 38 ab 77 c0
       4.9809055787320915 -378.7012193608595
000040 61 1f f0 7b af cd 91 c0 53 9a eb 6c d0 83 35 40
       -1139.4213712233689 21.514899070282194
000050 20 44 d4 09 18 e9 7b 40 fb 85 60 9f 78 6a 97 40
       446.56836874882174 1498.6177954751754
000060 0b 5d 05 c2 98 7b 78 c0 5f db 51 5c e6 14 82 c0
       -391.7247944077978 -578.6124807734558
000070 cc 98 fd 77 a0 dd 88 40 61 e9 de 40 89 db 82 c0
       795.7033538639312 -603.4420182623836
000080 68 02 f7 39 4d 4d 7e c0 f8 38 6d 61 d6 4c 3b 40
       -484.83135410774275 27.30014618794027
000090 6c c3 1a 2d 43 83 83 c0 d8 be ff 73 02 3f 75 40
       -624.4078008738411 339.93809890652255
0000a0 fe 32 f9 09 f8 ef 7e c0 d5 75 4b 8f c9 f0 7f c0
       -494.99805638640817 -511.0492089221637
0000b0 d6 17 f3 48 fa e9 86 40 4e 08 e5 34 de 03 84 c0
       733.2472094527864 -640.4834993260536
0000c0 85 40 eb 53 e9 2d 1d 40 21 99 a9 2c 96 3a 97 40
       7.29483538745274 1486.6466547488892
0000d0 e0 0b bf cb 63 15 81 40 fe b2 f2 3e 3c e8 37 c0
       546.673728458929 -23.907169279339534
0000e0 64 2c 24 90 de f7 8f 40 a1 1b 22 dc e4 58 76 40
       1022.983673365216 357.55587399791153
0000f0 7a 3d e1 65 eb 4a 85 c0 a1 d9 62 df a7 90 81 40
       -681.3649404141318 562.0819690439859
000100 a0 11 b1 54 76 7e 7f 40 8c 4e 52 b3 c2 3b 9b c0
       503.90388936202544 -1742.9401371822778
000110 67 40 04 5a 65 7b 05 c0 56 d7 ef e5 bf 53 85 c0
       -2.685251906637905 -682.4687002885428
