rbm/models/model2/W_8.npy (npy, 704 bytes, 1 tensors)

array f8 [8, 9]
0	0xbfe8e53fc3facfb6	-0.7779845073441638
1	0xbfe4bc928c243e20	-0.6480190980091187
2	0xc081ebc40de353a6	-573.4707296142485
3	0x407bafeab607023b	442.9948025010851
4	0x408832270898d9da	774.2690593663676
5	0xc0005e01eee6a6b4	-2.045902124799648
6	0xbffc0c54094af7b6	-1.7530098307611133
7	0xbfe72f0a21343e52	-0.724492134906493
8	0xc08fb03192627a25	-1014.0242049878622
9	0x406a01a8b7c1cee9	208.05184543469593
10	0x406246745af85513	146.20170353414923
11	0x409041fd6ef5048a	1040.497493580248
12	0xc05019a1aa1328fe	-64.40049220915895
13	0xc07335b86b847e11	-307.3575244117247
14	0x40779411e99f338e	377.2543731898121
15	0xc0757b761e975220	-343.7163377676934
16	0xc07d8ce0fa0f044c	-472.804925974521
17	0x406582e1bdfe81ba	172.09005641659115
18	0x4080ff861c3b00ee	543.940483532873
19	0xc06267559e599404	-147.22920148368587
20	0x3fe2decb0076ad0e	0.5896964081815967
21	0x408cf10812761b42	926.1289414622372
22	0x3ff51f7e34af5fa2	1.320188718605984
23	0x4070f9fcc393ca1c	271.62420995455045
24	0x3ff513bd27fff534	1.317319065331799
25	0xc082b94d7e9c20be	-599.1628391454212
26	0xc060b64bca0b71c5	-133.69675161586034
27	0x405cfbb941e4d8cb	115.93318221424413
28	0x4095f2321bde0576	1404.5489344302018
29	0x4063a6f92985e5f6	157.21791530754098
30	0xc057855dfdc62540	-94.08386177396915
31	0x407a702bc6ba898f	423.0106875692954
32	0xc070778dc262d9f6	-263.4721092091926
33	0xc07b641c414bff1f	-438.25689820943984
34	0x4047c71778389e90	47.55540373577708
35	0xc07f0af3af4664be	-496.6844933271167
36	0xc0748a8bc40a383b	-328.6591225051122
37	0xc072ba66a63db435	-299.6500608835516
38	0x4063ab0eb70b8f2a	157.3455462671057
39	0x4063b24995fe1b4d	157.57148265485958
40	0x4063a8ed530740f5	157.27897025505777
41	0x40955b992e1bf9f5	1366.899589955455
42	0xc06bb7650dc96eb9	-221.73108567564284
43	0xc075dec00d6a0287	-349.92188779268366
44	0x407260f2ecab78d4	294.0593077371716
45	0x405e7b42dd3ef742	121.92595606946
46	0xc081d2592be067cf	-570.2935407191925
47	0xbfd84ee348f8dda8	-0.3798149311655501
48	0x404f6e9e11cb4da8	62.86419889857217
49	0xc07c78c7ccae5c36	-455.5487791834779
50	0xc01eb3b2b4489ae7	-7.675486390048468
51	0x4093e4622294895a	1273.0958350380738
52	0x4009a9e69d02345b	3.2079593912408604
53	0x407e4224c57684cf	484.1339773778572
54	0xc07c5f0ada64647b	-453.9401496812422
55	0xbff04bca28fe8621	-1.0185033418023368
56	0x3fe6dffaa5e09eaa	0.7148411979478244
57	0xc08a3d0875ba5c64	-839.629130798287
58	0xc07379b829a11875	-311.6074615757746
59	0xbffed23ba1b516aa	-1.926326400441591
60	0xbff7429b92924b10	-1.453761646790273
61	0x40468f2ea89290cb	45.11861140400432
62	0x40833b99ac1ab508	615.4500352941986
63	0x4091f2bb257aa265	1148.682760158693
64	0x4001ea59afb9f42d	2.239428875791893
65	0x40849a0798f085ad	659.253709677772
66	0x4000bbed13653943	2.0917607798830047
67	0xc085826507a13466	-688.2993309587589
68	0x400f00111b956c2e	3.8750326304412033
69	0x3ff2b1566d66ddfb	1.168295314169767
70	0xc08aa13e6e428f0f	-852.1554837417515
71	0x3ff8051556cef02e	1.5012410536719574
